…
small representation (the bottleneck) and then reconstruct the original.</p> <pre><code>Input (784 pixels) \u2192 Encoder \u2192 Bottleneck (32 values) \u2192 Decoder \u2192 Reconstructed image\n</code></pre> <p>Applications: anomaly detection, denoising, generative art, data compression.</p>"},{"location":"chapters/38-neural-networks-and-mnist/#putting-it-all-together-the-cnn-shape-journey","title":"Putting It All Together \u2014 The CNN Shape Journey","text":"<p>The table below traces the data shape through the CNN for a single 28\u00d728 MNIST image:</p> Layer Output Shape Parameters Input (28, 28, 1) 0 Conv2D(32, 3\u00d73) (26, 26, 32) 320 MaxPooling2D (13, 13, 32) 0 Conv2D(64, 3\u00d73) (11, 11, 64) 18,496 MaxPooling2D (5, 5, 64) 0 Flatten (1,600,) 0 Dense(128) (128,) 204,928 Dropout(0.5) (128,) 0 Dense(10) (10,) 1,290 <p>Total parameters: 225,034 \u2014 much more efficient than a dense-only model of similar depth.</p>"},{"location":"chapters/38-neural-networks-and-mnist/#learning-check","title":"Learning Check","text":"<p>Your Turn \u2014 Count the Parameters</p> <p> A <code>Dense(64)</code> layer following a <code>Flatten
…
